checkpoint.pth (torch_old, 46016 bytes, 6 tensors)

fc1.weight f4 [64, 37]
0	0xbc228952	-0.009920435
1	0xbc3ab82e	-0.011396451
2	0xbdaf5315	-0.085607685
3	0xbdd9d03f	-0.10635423
4	0xbd5225fb	-0.051305752
5	0x3e07d66b	0.13265388
6	0xbe1ac027	-0.15112363
7	0xbcd51ebc	-0.026015632
8	0xbe0fb92e	-0.14035484
9	0xbe0711eb	-0.13190429
10	0xbce944de	-0.028475221
11	0xbde5fe38	-0.11230129
12	0xbdde971d	-0.10868666
13	0xbe2cdc05	-0.16880806
14	0xbdfab806	-0.12242131
15	0xbc940a99	-0.01807146
16	0xbd5a7de3	-0.05334271
17	0x3dd61fdd	0.10455296
18	0x3d175216	0.036943518
19	0x3b659062	0.0035028686
20	0x3dcc7f8d	0.09985266
21	0x3d2e7cb2	0.042599387
22	0xb98f1633	-0.00027291625
23	0x3d1e83c4	0.03869988
24	0xbda074ac	-0.078347534
25	0xbd0292eb	-0.031878393
26	0x3dc0a12d	0.09405742
27	0xbdb7b1e2	-0.08969475
28	0xbd19e662	-0.037573226
29	0xbd45a88d	-0.048256446
30	0xbd95f7c6	-0.0732265
31	0x3cf78210	0.030213386
32	0xbd6391d2	-0.055558987
33	0xbddf77bd	-0.1091151
34	0xbddc3734	-0.10752717
35	0xbe1fe273	-0.15613727
36	0xbe0220df	-0.12707852
37	0x3e433b71	0.19065644
38	0x3c6da8b4	0.014505554
39	0x3ca1307d	0.019676441
40	0xbd3be8c2	-0.045876272
41	0xbe528db0	-0.20561862
42	0x3dd67f72	0.10473527
43	0xbe767db8	-0.24071395
44	0xbe4a056a	-0.19728628
45	0xbe070d53	-0.13188677
46	0x3c9bcd74	0.019018866
47	0xbcaa028c	-0.020753168
48	0xbc3146cc	-0.010820102
49	0x3c9515cd	0.018198872
50	0x3da722b6	0.081609175
51	0x3e4bfb67	0.19920121
52	0x3e40b758	0.1881994
53	0xbdc14b91	-0.09438241
54	0xbd0ac1ef	-0.033876356
55	0xbe05d19e	-0.13068244
56	0xbec4a5f2	-0.38407856
57	0xbe144a3e	-0.14481446
58	0xbddf73fc	-0.10910794
59	0xbdc84891	-0.09779466
60	0x3d1a15e0	0.037618518
61	0x3e0c041a	0.1367344
62	0xbda22a5f	-0.07918238
63	0x3db89d0c	0.09014329
64	0x3c532470	0.012887105
65	0xbd62e73b	-0.0553963
66	0xbcc4c974	-0.024021842
67	0xbb930673	-0.004486853
68	0x3d338e7a	0.043837048
69	0x3ddcdcca	0.107843
70	0x3c87ef82	0.016593698
71	0x3dae7865	0.08519057
72	0xbce21ddb	-0.027602127
73	0x3db8f50f	0.09031116
74	0x3dd04e23	0.101711534
75	0x3db0ccc2	0.086328045
76	0x3dd2e98c	0.10298452
77	0xbe2ad20f	-0.16681693
78	0xbc7cb550	-0.015424088
79	0xbe6ecfb6	-0.23321423
80	0xbe348d2a	-0.17631975
81	0x3e41224f	0.18860744
82	0x3e03675a	0.12832394
83	0xbe82e041	-0.25561717
84	0xbc9ef0a3	-0.019401854
85	0xbd5d3558	-0.05400595
86	0xbcca4100	-0.024689198
87	0xbd51e3cf	-0.051242646
88	0x3d4ebba5	0.05047192
89	0xbdbf5b7d	-0.09343622
90	0x3d43000a	0.04760746
91	0x3daa9a3e	0.083302006
92	0x3dd8d249	0.10586984
93	0x3d04ba1d	0.032404054
94	0xbe2c53d0	-0.16828847
95	0xbd980e3a	-0.074245885
96	0x3d7d642c	0.06186311
97	0xbcae4cc2	-0.021276835
98	0xbe042478	-0.12904537
99	0xbd655094	-0.05598505
100	0x3e02ce0b	0.12773912
101	0x3dca98f4	0.09892455
102	0xbdbaa1c6	-0.09112887
103	0xbdd0dc18	-0.101982296
104	0xbe4ac6bd	-0.19802375
105	0xbd0f0d37	-0.034924712
106	0xbda6c105	-0.08142284
107	0xbe1f35b1	-0.15547825
108	0xbd94cc35	-0.07265512
109	0x3d057dd9	0.03259072
110	0xbd128010	-0.03576666
111	0x3db81204	0.08987811
112	0x3d852173	0.065005206
113	0x3db7984b	0.089645945
114	0x3db1fba0	0.08690572
115	0xbd6a694f	-0.057229336
116	0xbcbe8738	-0.023257837
117	0x3c91617c	0.01774668
118	0x3d0fd998	0.035119623
119	0x3d4f5ea6	0.050627373
120	0x3df57819	0.119857974
121	0xbd14d99f	-0.036340352
122	0x3d6c5966	0.057702444
123	0x3c0a66e8	0.008447386
124	0xbd2d62db	-0.042330604
125	0xbd1a5ddd	-0.03768717
126	0xbd8b419a	-0.06799622
127	0xbcd4a5f6	-0.025958043
128	0xbd656c46	-0.05601146
129	0xbda50129	-0.08056862
130	0xbd1426d2	-0.036169834
131	0x3e423e76	0.1896914
132	0xbec8cc03	-0.3921815
133	0xbd8188c4	-0.06324914
134	0x3c60ce88	0.013721116
135	0xbf0a45b8	-0.5401263
136	0x3ce81ce0	0.028334081
137	0x3ce8cf57	0.02841918
138	0x3d053577	0.03252169
139	0x3d9d9984	0.076952964
140	0x3d9a03d7	0.07520264
141	0x3e017a8f	0.12644409
142	0x3e6490ff	0.22320937
143	0xbd88b5d2	-0.066753045
144	0xbda00e75	-0.078152575
145	0xbf12abac	-0.572932
146	0xbaa83615	-0.00128335
147	0x3b4f3555	0.0031617482
148	0xbdc312a3	-0.09525039
149	0xbdf3f794	-0.11912456
150	0xbe1b4235	-0.15161975
151	0xbe094cca	-0.13408199
152	0x3bab5ce1	0.005229578
153	0x3e243fb2	0.16039923
154	0xbe0fa6a7	-0.14028417
155	0xbeb17617	-0.34660408
156	0xbc6f21f2	-0.014595496
157	0xbf89e532	-1.077307
158	0xbd07c3cc	-0.03314571
159	0xbd4280f6	-0.047486268
160	0xbccb70b0	-0.024834007
161	0xbd982c22	-0.07430293
162	0xbdcf9c8c	-0.10137281
163	0xbe348111	-0.1762736
164	0xbbc1c729	-0.0059136343
165	0x3c090c3f	0.008364736
166	0xbcb32caa	-0.021871883
167	0x3df505b9	0.11963982
168	0xbd9c17c7	-0.07621723
169	0xbd59fc76	-0.05321928
170	0x3d40d71f	0.047080155
171	0xbcf75d40	-0.030195832
172	0x3e136b79	0.14396466
173	0x3cf9bb87	0.030484928
174	0xbd99a134	-0.0750145
175	0x3db0079c	0.085952014
176	0x3d9a6e24	0.07540539
177	0xbbf6aeb5	-0.007528151
178	0x3da292b7	0.0793814
179	0xbda633f3	-0.08115377
180	0x3d7becd1	0.061505143
181	0x3cc34617	0.023837132
182	0x3e715db3	0.235709
183	0x389a78e7	7.365812e-05
184	0x3d42cde8	0.04755965
185	0x39920705	0.0002785252
186	0xbddbee9c	-0.107388705
187	0x3d79d045	0.060989637
188	0xbe087d6c	-0.13329095
189	0x3d32d0e7	0.043656256
190	0x3dd60673	0.10450449
191	0x3d8259a4	0.06364754
192	0xbc9b1e38	-0.018935308
193	0xbd457c70	-0.048214376
194	0xbef281ee	-0.47364753
195	0xbd59a03a	-0.05313132
196	0xbdf2321f	-0.11825966
197	0x3c5bb0cb	0.01340885
198	0xbe0adc2d	-0.13560553
199	0xbd05c0ba	-0.0326545
200	0xbda552b0	-0.08072412
201	0x3dcf70c0	0.10128927
202	0xbd1f2d39	-0.038861487
203	0xbe02fbe9	-0.12791409
204	0x3b60e676	0.0034317053
205	0x3dcab58f	0.09897911
206	0xbc12fdc2	-0.008971633
207	0x3e154672	0.14577654
208	0xbcf041aa	-0.029328186
209	0xbce418a1	-0.027843775
210	0xbd006f8c	-0.03135638
211	0xbde3dc58	-0.111260116
212	0x3dd862f7	0.10565751
213	0xbd18d10f	-0.03730875
214	0xbd03e4e1	-0.032200698
215	0x3d4ee1fa	0.050508477
216	0xbe092eb7	-0.13396727
217	0xbd6e6367	-0.058200266
218	0xbd9badfe	-0.07601546
219	0xbf0bc06b	-0.5459048
220	0x3cbc6f57	0.02300231
221	0x3dea2667	0.11433106
222	0x3cf17831	0.029476257
223	0xbb4c0674	-0.0031131776
224	0x3be49f6e	0.0069770133
225	0xba9f204b	-0.0012140361
226	0xbc17d58f	-0.009267225
227	0xbdb65e66	-0.08904724
228	0xbceb438e	-0.028718736
229	0xbb9e097f	-0.0048229094
230	0x3d3ada94	0.04561861
231	0x3dce4074	0.10070887
232	0x3d83418a	0.06408985
233	0x3d81eda1	0.06344152
234	0x3da6964e	0.08134137
235	0x3dca0459	0.098641105
236	0x3db6264a	0.08894022
237	0xbd5274b0	-0.051380813
238	0xbc8ae73c	-0.016955964
239	0x38f0f6ec	0.000114900846
240	0x3c99e5de	0.018786367
241	0x3e1cdc52	0.1531842
242	0xbd9097f2	-0.07060231
243	0xbad45582	-0.00161998
244	0x3d4d9273	0.050188493
245	0xbb84948a	-0.0040460275
246	0x3e4fb450	0.20283628
247	0xbdb9a0ff	-0.09063911
248	0x3bfc2625	0.007694977
249	0xbd092148	-0.033479005
250	0xbdabd0ff	-0.08389472
251	0x3d08bf8d	0.033385802
252	0x3e3bbc4b	0.18333547
253	0xbdf013ba	-0.117225125
254	0xbe2f97b0	-0.17147708
255	0xbe44f55a	-0.19234219

fc1.bias f4 [64]
0	0x3dc56035	0.09637491
1	0xbd532f5d	-0.05155884
2	0xbe10cb78	-0.14140117
3	0xbd4a991b	-0.04946242
4	0x3e1cb3a6	0.15302905
5	0xbd53380a	-0.051567115
6	0xbd733426	-0.059375905
7	0x3dbd2c1f	0.09236931
8	0x3a9fa525	0.0012179954
9	0xbe0478d1	-0.12936713
10	0x3e0f2adf	0.13981198
11	0x3dd8111b	0.105501376
12	0x3e4414e7	0.19148599
13	0x3dc37c1a	0.09545155
14	0xbcd3ffa2	-0.025878731
15	0x3c68b84c	0.014204096
16	0x3da8f8cc	0.08250579
17	0xbd29319f	-0.041307088
18	0x3d0d529c	0.03450261
19	0xbe077323	-0.13227515
20	0xbdfb1c5b	-0.12261268
21	0x3d7cd39e	0.06172525
22	0xbb5b1e77	-0.0033434907
23	0xbde1f059	-0.11032171
24	0xbe2692ae	-0.16266891
25	0x3e12e258	0.14344156
26	0x3c5e9a61	0.0135866115
27	0xbe0f75ed	-0.14009829
28	0x3e36d8d4	0.17856151
29	0x3dcc9564	0.099894315
30	0xbdbf4433	-0.0933918
31	0xbe0c08a3	-0.1367517
32	0x3e228a83	0.1587315
33	0xbc524475	-0.012833704
34	0xbdcf6a08	-0.10127646
35	0x3e266fa0	0.16253519
36	0xbaf77d6b	-0.0018881982
37	0x3bd1c8da	0.006402117
38	0xbd3b000c	-0.04565434
39	0xbdf58c6d	-0.11989675
40	0xbdde3f67	-0.10851937
41	0x3a141c2a	0.0005649949
42	0xbe137212	-0.14398983
43	0x3e565351	0.2093022
44	0x3b5eb637	0.003398312
45	0xbd3a4e81	-0.045485023
46	0x3dac71ea	0.08420165
47	0xbe1c142a	-0.15242067
48	0xbdd44812	-0.10365309
49	0x3da63908	0.081163466
50	0xbe1445b8	-0.1447972
51	0x3de8a9b4	0.11360493
52	0x3c3011e0	0.010746449
53	0xbd8e0128	-0.06933814
54	0xbe106df1	-0.1410444
55	0x3d2e9473	0.04262204
56	0x3d3c5017	0.045974817
57	0x3c378be4	0.011202786
58	0xbe0e30c0	-0.13885784
59	0xbd90a1b2	-0.07062091
60	0x3cb32372	0.021867488
61	0x3c393dc3	0.011306229
62	0x3d9712e8	0.07376653
63	0x3d207484	0.039173618

fc2.weight f4 [128, 64]
0	0x3c8ba972	0.017048571
1	0x3deed326	0.11661367
2	0x3d89c8c2	0.06727745
3	0x3d3cfb8e	0.04613834
4	0x3da8ea14	0.08247772
5	0xbd1954db	-0.03743444
6	0xbd9530fc	-0.07284734
7	0xbc8926ac	-0.016742073
8	0x3cd94b71	0.026525231
9	0x3d6bb22a	0.057542957
10	0x3c92fbd3	0.017942345
11	0xbd811e2d	-0.06304584
12	0xbda4a834	-0.08039895
13	0x3dcc1243	0.09964421
14	0xbc19d351	-0.009388761
15	0xbcabc67f	-0.020968674
16	0xbdbc9929	-0.092089005
17	0xbd5d9369	-0.05409566
18	0x3d2abf3f	0.041686293
19	0x3ddfc137	0.10925525
20	0x3ba31106	0.0049763946
21	0x3d91fa9b	0.07127877
22	0x3dab8e84	0.08376792
23	0x3d523a6b	0.051325243
24	0xbd705b40	-0.058680773
25	0xbd23369c	-0.039847
26	0x3e25eaa3	0.16202788
27	0xbe1d12dc	-0.15339226
28	0x39807a17	0.00024505027
29	0xbdb9cfba	-0.09072824
30	0x3df3cfbb	0.11904856
31	0xbd725ae1	-0.0591687
32	0x3e264db4	0.16240579
33	0x3d056306	0.03256514
34	0x3d024509	0.03180412
35	0x3d8ac91d	0.067766406
36	0xbe130e3c	-0.14360899
37	0x3e601e88	0.21886647
38	0x3d5a5a55	0.053308804
39	0xbda6bf0d	-0.08141909
40	0xbe425900	-0.18979263
41	0xbd76dab9	-0.060267184
42	0x3dff8349	0.124762125
43	0xba876ba5	-0.0010331763
44	0x3d8e0033	0.06933632
45	0xbdc14412	-0.094368115
46	0xbdd0058c	-0.10157308
47	0x3d801f12	0.06255926
48	0xbddb9393	-0.10721507
49	0x3b0f004a	0.002182024
50	0xbd1b34a6	-0.037892006
51	0xbcac7e00	-0.021056175
52	0xbe084afd	-0.13309856
53	0x3e0204bf	0.12697123
54	0x3d2fb098	0.042893022
55	0x3c177781	0.009244801
56	0xbbbd5590	-0.005778022
57	0xbe39a5cc	-0.18129653
58	0xbe398289	-0.18116201
59	0xbdaa1dc2	-0.08306457
60	0x3dfd4ea9	0.12368519
61	0x3dd83724	0.10557392
62	0xbd8231d5	-0.06357161
63	0x3d2969cb	0.041360658
64	0xbc412669	-0.011788943
65	0x3deab346	0.11459975
66	0xbdf6198a	-0.1201659
67	0x3d8dc707	0.06922727
68	0x3db0b272	0.08627786
69	0x3db4212a	0.08795388
70	0xbe7f8ae5	-0.24955328
71	0x3d6c8e76	0.05775305
72	0xbd9d5eda	-0.07684107
73	0xbde4e680	-0.11176777
74	0x3cbe71c8	0.023247615
75	0x3dbcf564	0.09226492
76	0xbc21d11f	-0.0098765185
77	0x3de6abc1	0.11263228
78	0x3d497812	0.049186774
79	0x3e163018	0.14666784
80	0x3e065b56	0.1312078
81	0x3d487090	0.048935473
82	0xbe03eeaf	-0.1288402
83	0xbe47a38a	-0.19495979
84	0x3cea2b4d	0.0285851
85	0xbd6c6f90	-0.05772358
86	0x3dbf9e4e	0.09356366
87	0xbdb7be3f	-0.089718334
88	0x3a983c9f	0.0011614746
89	0x3d05c783	0.032660972
90	0xbd2e855f	-0.04260766
91	0x3d7228a8	0.059120804
92	0x3da7b392	0.08188547
93	0xbe173fb7	-0.14770399
94	0x3de004b1	0.10938395
95	0xbda8226a	-0.08209689
96	0x3bc24287	0.005928341
97	0x3dc79b73	0.097464465
98	0x3c112212	0.008858221
99	0xbb0b660a	-0.0021270537
100	0xbd4208d3	-0.047371697
101	0x3ce86f51	0.028373392
102	0x3ce8d22b	0.028420528
103	0xbda1926b	-0.07889255
104	0xbdb6309c	-0.0889599
105	0xbc858d27	-0.016302658
106	0xbcc0b431	-0.023523422
107	0xbd1930ae	-0.03739994
108	0xbe1cfe0a	-0.15331283
109	0xbde889f0	-0.113544345
110	0xbdc820b6	-0.09771864
111	0xbd29a118	-0.041413397
112	0xbdd83034	-0.10556069
113	0x3bcceecf	0.006254054
114	0xbd3b77e5	-0.045768637
115	0x3d859d77	0.06524175
116	0xbd657b49	-0.056025777
117	0xbd9d29a7	-0.0767396
118	0x3c3db5e7	0.011579013
119	0x3d6094bf	0.054829355
120	0xbdad84bc	-0.08472583
121	0xbd8d6e14	-0.06905761
122	0x3dd87dce	0.1057087
123	0x3df2b31f	0.11850571
124	0xbdd9428c	-0.10608396
125	0xbc9c0b4b	-0.019048354
126	0xbcc1d1e6	-0.023659658
127	0xbd8c3bc0	-0.06847334
128	0xbd65748e	-0.05601936
129	0xbdcdc9f6	-0.100482866
130	0x3d21bbe8	0.039485842
131	0x3e1a8148	0.1508838
132	0x3d0e3556	0.034718834
133	0x3d7d8051	0.06188995
134	0xbc4d67ab	-0.012536923
135	0x3cd6824b	0.026185175
136	0x3d8a9c31	0.067680724
137	0xbddfb157	-0.10922497
138	0x3d1e2ce5	0.038617034
139	0x3d64e4e6	0.055882357
140	0x3deb614f	0.114931695
141	0x3dd4de71	0.1039399
142	0x3d3cfdd8	0.04614052
143	0xbc8713cf	-0.016488938
144	0xbdef305d	-0.116791464
145	0x3db34fac	0.087554306
146	0x3da23bcc	0.079215616
147	0xbdc26e55	-0.094937004
148	0xbdf6e0d3	-0.120546006
149	0x3dd2ce8b	0.10293301
150	0x3c17a9dc	0.009256806
151	0x3da2fb89	0.07958133
152	0xbc1db86d	-0.00962649
153	0x3e0a9bec	0.13536042
154	0x3e4e7777	0.2016276
155	0xbe856cef	-0.26059672
156	0xbcaa77e6	-0.020809125
157	0x3e2e0aa2	0.16996244
158	0x3d294a32	0.041330524
159	0xbcb1c95f	-0.021702467
160	0xbdbf5c0e	-0.0934373
161	0xbd078c91	-0.03309304
162	0xbdedb98c	-0.11607656
163	0x3dc51a53	0.096241616
164	0x3e2afad8	0.16697252
165	0x3e6cbbb3	0.23118477
166	0x3e50c98a	0.20389381
167	0xbd182668	-0.037146002
168	0x3e121c75	0.14268668
169	0x3bb4a4a0	0.005512789
170	0x3cbf5605	0.023356447
171	0xbdb81226	-0.089878365
172	0xbd4e43f7	-0.050357785
173	0xbcda608a	-0.026657362
174	0x3cae37cc	0.02126684
175	0xbd11ad49	-0.03556565
176	0x3d50735a	0.050891258
177	0xbdcebc44	-0.100945026
178	0xbe0ef887	-0.13961993
179	0x3d03e0d1	0.032196824
180	0xbdc0ec2a	-0.09420045
181	0x3e597dc0	0.21239376
182	0xbdd8385a	-0.10557623
183	0xbd5f614e	-0.054536156
184	0x3c2e2b70	0.0106304735
185	0xbe3f30af	-0.18670915
186	0x3df58a42	0.11989261
187	0x3a0132d5	0.0004928534
188	0xbd23638a	-0.03988985
189	0x3df1b521	0.11802126
190	0x3d3a37ad	0.045463253
191	0x3dfc29d3	0.12312665
192	0x3d04bc45	0.03240611
193	0xbdd1967c	-0.10233781
194	0xbb4cc5b0	-0.003124576
195	0xbd81afec	-0.063323826
196	0x3d9abb98	0.07555312
197	0x3d00d288	0.03145078
198	0xbd857642	-0.065166965
199	0xbcb82135	-0.022476772
200	0xbdf65636	-0.12028162
201	0x3df031a3	0.117282175
202	0xbcdaa287	-0.026688827
203	0x3e418bab	0.18900935
204	0xbdb66d7f	-0.089076035
205	0x3e3d891f	0.18509339
206	0xbd364a01	-0.04450417
207	0xbd637a66	-0.05553665
208	0xbcc1bc85	-0.023649463
209	0x3be1c860	0.0068903416
210	0xbb98bbd2	-0.004661062
211	0xbd4d23f2	-0.05008311
212	0x3d02f694	0.031973436
213	0x3dda0072	0.10644616
214	0x3e43d0d3	0.19122629
215	0x3d4b7bf4	0.049678758
216	0x3ddb4a35	0.10707513
217	0x3dd1898d	0.10231314
218	0xbc1bd3b5	-0.009510924
219	0xbed7952c	-0.42105997
220	0x3e1bd262	0.15216973
221	0xbd3e1eb4	-0.046416
222	0xbc9f5101	-0.019447805
223	0xbd282a96	-0.041056238
224	0xbd9af735	-0.07566682
225	0xbd437196	-0.047715746
226	0xbc4b6c9e	-0.012416033
227	0x3df09310	0.117468
228	0xbdcb0df4	-0.09914771
229	0x3dd993b2	0.10623874
230	0x3dafad54	0.085779816
231	0xbd5583ab	-0.05212752
232	0x3d82bda4	0.06383827
233	0x3e03b447	0.12861739
234	0xbb823dce	-0.003974653
235	0xbd64d746	-0.055869363
236	0xbc86b28d	-0.016442562
237	0x3d67f5e9	0.056631003
238	0x3c7cadf9	0.015422338
239	0x3d4f3c31	0.050594512
240	0x3cf6ad01	0.030111792
241	0x3db8327b	0.089940034
242	0xbdf2a6d2	-0.11848225
243	0x3da7b1d6	0.081882164
244	0x3dd497e7	0.103805356
245	0x3d9c2d33	0.076258086
246	0x3d7da016	0.061920248
247	0x3d831b4f	0.06401693
248	0xbd89742e	-0.06711613
249	0xbd6cfb44	-0.057856813
250	0xbc06ca0c	-0.008226883
251	0x3de07c9c	0.10961267
252	0xbdb58f00	-0.08865166
253	0x3de683c7	0.11255603
254	0xbe7c625a	-0.24646893
255	0xbc8d2f94	-0.017234601

fc2.bias f4 [128]
0	0x3cda138e	0.026620653
1	0x3784821b	1.5796211e-05
2	0x3d2ba3da	0.041904308
3	0xbd29fde4	-0.041501895
4	0x3dff8fd5	0.12478606
5	0x3debdeae	0.11517082
6	0x3d836fd2	0.064178124
7	0xbd743663	-0.05962218
8	0x3d3c93a5	0.046039242
9	0x3e0e8f75	0.13921912
10	0x3d1ad0db	0.037796836
11	0xbd008984	-0.031381145
12	0xbd207634	-0.039175227
13	0xbdf99dc6	-0.12188296
14	0x3ca3ef28	0.0200115
15	0xbd80b369	-0.0628422
16	0x3cf9cf0c	0.030494235
17	0x3cf1f133	0.029533958
18	0x3e0e6931	0.13907315
19	0xbd62f3f8	-0.055408448
20	0xbc3973e2	-0.0113191325
21	0xbca5b94e	-0.020229962
22	0xbdb4f6b6	-0.08836119
23	0xbd7cc9df	-0.061715957
24	0xbd84836a	-0.06470378
25	0xbd2b041e	-0.041751973
26	0x3d15cb8a	0.036571063
27	0x3d2e2167	0.042512324
28	0x3d6e7713	0.058219027
29	0x3e0b9c7b	0.13633911
30	0xbcc7db82	-0.024396662
31	0x3cb07a3f	0.021542666
32	0xbd568f22	-0.052382596
33	0x3dc4a96e	0.09602629
34	0x3e13f782	0.14449885
35	0x3d8e9a5c	0.069630355
36	0xbddcec69	-0.10787279
37	0x3cd8af54	0.02645079
38	0xbd31d506	-0.043416046
39	0xbdc81379	-0.09769339
40	0x3d9fffd4	0.07812467
41	0x3d63cc45	0.05561473
42	0x3dd72cc0	0.10506582
43	0x3d8be607	0.068309836
44	0xbcfef022	-0.031120364
45	0x3dc02465	0.09381942
46	0xbd1420d3	-0.036164116
47	0xbdcc465e	-0.09974359
48	0xbcfc3d63	-0.03079099
49	0xbd7651de	-0.06013667
50	0x3dc06605	0.09394459
51	0xbdbb51ba	-0.091464475
52	0x3ded4cb5	0.11586896
53	0xbd17b1b0	-0.03703469
54	0xbc1a279d	-0.009408859
55	0x3de71be9	0.1128462
56	0xbd2faa13	-0.042886805
57	0xbd36c9b9	-0.04462597
58	0x3d8f9422	0.07010676
59	0xb99fd4be	-0.00030485349
60	0xbc08b887	-0.008344776
61	0x3d405aad	0.046961475
62	0xbd12fd42	-0.035886057
63	0x3d5b1cde	0.053494327
64	0xbd141ebc	-0.036162123
65	0x3d92a223	0.071598314
66	0xbce809be	-0.028324958
67	0xbdc1318a	-0.09433277
68	0xbce89ce0	-0.028395116
69	0x3d1a5cdf	0.037686225
70	0xbd1701fe	-0.036867134
71	0x3e0c74fb	0.137165
72	0xbd6a61f6	-0.05722233
73	0x3d2e37ad	0.042533565
74	0x3bef3dd1	0.0073010703
75	0xbd98e916	-0.074663326
76	0x3db20c70	0.086937785
77	0xbd47c504	-0.048771873
78	0xbd290fb7	-0.041274752
79	0xbc6b564c	-0.0143638365
80	0xbdf62467	-0.12018662
81	0x3db54ed3	0.08852925
82	0xbd35db17	-0.044398393
83	0x3df6140c	0.120155424
84	0x3d9f294c	0.07771549
85	0x3d745a07	0.05965617
86	0x3d9095f3	0.070598505
87	0x3cd08751	0.025455149
88	0xbda83d49	-0.08214814
89	0x3c2c8531	0.010529802
90	0xbd1ce9e4	-0.038308993
91	0x3dec2e72	0.11532296
92	0x3d9f5a72	0.07780923
93	0x3d6cd648	0.057821542
94	0xbddf7cf7	-0.10912507
95	0xbdfef218	-0.124485195
96	0xbdc9ed6e	-0.09859739
97	0x3d5cdc04	0.05392076
98	0x3d4a2b2e	0.049357586
99	0xbdf83fbe	-0.12121533
100	0xbe10b294	-0.14130622
101	0x3dc8b48c	0.098000616
102	0x3d8c6b8a	0.06856449
103	0xbd9c70c4	-0.07638696
104	0x3c2752f6	0.0102126505
105	0x3d675f6d	0.05648749
106	0x3d23089b	0.03980313
107	0x3cb7ac97	0.022421164
108	0xbd73eed2	-0.05955393
109	0xbc7568ff	-0.014978646
110	0xbcbd5e36	-0.023116212
111	0xbda37a26	-0.07982282
112	0xbdac80e4	-0.084230214
113	0x3dd46ab2	0.10371913
114	0x3c58ba22	0.013227971
115	0x3d1e07d8	0.0385817
116	0xbd51fd0f	-0.051266726
117	0x3d2d11f0	0.042253435
118	0x3e096873	0.1341875
119	0x3dc99f74	0.098448664
120	0x3cebb761	0.028773965
121	0xbdac9ba0	-0.084281206
122	0x3ded6c7e	0.11592959
123	0xbd3f0976	-0.046639882
124	0xbbf1a462	-0.0073743323
125	0x3cf442dc	0.029817037
126	0x3b61e94c	0.0034471331
127	0xbb6ecb28	-0.0036437009

fc6.weight f4 [4, 128]
0	0x3e083d16	0.13304552
1	0x3ca34d40	0.019934297
2	0x3d810665	0.06300048
3	0x3e37e161	0.17957069
4	0xbe229546	-0.15877256
5	0x3d60f4de	0.054921024
6	0x3e2ff16d	0.1718194
7	0xbd194648	-0.03742054
8	0x3d1161e4	0.035493746
9	0x3d89b332	0.06723632
10	0x3cdef060	0.02721423
11	0xbd31238c	-0.04324679
12	0x3cc24b63	0.023717588
13	0x3e0a051a	0.13478509
14	0x3c916615	0.017748872
15	0xbd215df9	-0.03939626
16	0x3b992bfe	0.0046744337
17	0xbddb299f	-0.10701298
18	0x3db6cea9	0.08926136
19	0x3da6a818	0.0813753
20	0xbd697668	-0.056997687
21	0x3da2f658	0.079571426
22	0xbcf60a8c	-0.030034326
23	0xbd95a5fd	-0.073070504
24	0xbd7a8757	-0.061164226
25	0x3e0fa575	0.1402796
26	0x3d4db86e	0.050224714
27	0x3c0f87da	0.008760417
28	0x3e316448	0.1732341
29	0x3df88a13	0.121357106
30	0xbd5a1e56	-0.053251587
31	0xbd08655d	-0.033299793
32	0xbe316b60	-0.17326117
33	0xbccbe774	-0.024890639
34	0x3ddaddcc	0.10686836
35	0x3dd8134a	0.10550554
36	0xbdc2ab5a	-0.09505339
37	0x3e5235ca	0.20528331
38	0xbd3fda08	-0.04683879
39	0x3d95d64d	0.07316265
40	0xbd39084a	-0.04517392
41	0x3d1fc9c4	0.039010778
42	0xbd6f1065	-0.058365244
43	0x3d0af405	0.03392412
44	0x3e4e2228	0.20130217
45	0x3dc1fe65	0.0947235
46	0xbd8c1393	-0.06839671
47	0x3ac5db41	0.001509525
48	0xbdd4e3d0	-0.10395014
49	0x3e224c14	0.15849334
50	0x3e45b7f5	0.19308455
51	0xbe1d0dd9	-0.15337314
52	0x3dca6175	0.0988187
53	0x3d172654	0.036901787
54	0xbcca092a	-0.024662573
55	0xbc925d7c	-0.017866842
56	0x3d304790	0.043036997
57	0xbc0aecf5	-0.0084793465
58	0x3d95a36f	0.07306563
59	0x3c3d35fe	0.011548517
60	0xbd81ad7a	-0.06331916
61	0x3d7ce9c4	0.061746374
62	0x3da81875	0.0820779
63	0xbe29d144	-0.16583735
64	0x3e07a702	0.13247302
65	0x3d2e84b7	0.042607035
66	0xbd2600ca	-0.040528096
67	0x3e23f079	0.16009702
68	0xbd645574	-0.055745557
69	0xbbe36e8d	-0.006940669
70	0x3ac51476	0.0015036005
71	0x3da157d6	0.078780815
72	0x3d322b7a	0.043498494
73	0xbd68db63	-0.05684985
74	0x3e0338fb	0.12814705
75	0x3d46985d	0.04848515
76	0xbd90e844	-0.07075551
77	0x3d8b818f	0.06811821
78	0xbe01e794	-0.12685996
79	0x3e96bf33	0.29442748
80	0x3da0b70e	0.07847415
81	0x3dc03f46	0.093870685
82	0xbe25b83c	-0.16183561
83	0x3d84399c	0.064563006
84	0x3c67d672	0.014150249
85	0xbbbe4fc1	-0.0058078473
86	0x3d15fd10	0.036618292
87	0xbd8fd647	-0.07023292
88	0xbe09a07a	-0.13440123
89	0xbd924d4f	-0.07143652
90	0xbe0d6144	-0.13806635
91	0x3d716484	0.05893375
92	0x3d5907d2	0.052985974
93	0x3d43cea5	0.047804493
94	0xbcc2b535	-0.023768047
95	0x3bdf2a34	0.006810451
96	0x3d8dad5c	0.06917831
97	0xbcfb7dfa	-0.030699719
98	0xbd4639bc	-0.048394904
99	0x3cf6cc7f	0.030126808
100	0xbd22c2bd	-0.0397365
101	0x3e1ecc25	0.15507562
102	0x3d19f9b1	0.03759164
103	0xbc3d5dbe	-0.011557994
104	0x3d5226c2	0.051306494
105	0xbd740b07	-0.05958083
106	0xbd6b9e5d	-0.057524074
107	0xbe5560d1	-0.20837714
108	0xbcfa5915	-0.030560056
109	0xbe00f639	-0.12593926
110	0x3d8caaac	0.068684906
111	0xbd7c8ec6	-0.061659597
112	0xbc9e55af	-0.019327966
113	0xbdb18c29	-0.086693116
114	0xbd9c7d61	-0.07641102
115	0x3e2ed8fc	0.1707496
116	0x3d7ab12b	0.061204117
117	0x3d1d6c35	0.038433272
118	0xbd90b10e	-0.070650205
119	0xbddc0a03	-0.10744097
120	0x3d68f09c	0.056870088
121	0x3bbcd5dc	0.0057627987
122	0x3d82f57b	0.06394478
123	0x3c1a3aa0	0.009413391
124	0xbd59b3cd	-0.053149987
125	0x3d8040fc	0.06262395
126	0xbda699d5	-0.0813481
127	0x3d88a6a5	0.0667241
128	0x3df70d92	0.12063135
129	0xbd4e528c	-0.05037169
130	0x3d73fc28	0.059566647
131	0x3e1f8f11	0.15581919
132	0xbda690ac	-0.08133063
133	0x3d403f77	0.046935525
134	0x3dbccf3f	0.092192166
135	0xbd42a6d1	-0.04752237
136	0xbd6caad8	-0.057780117
137	0x3dbba2c3	0.09161904
138	0x3d3f87bd	0.04676031
139	0x3d4ca9e5	0.04996671
140	0x3d579e71	0.052641336
141	0x3d0319f9	0.03200719
142	0x3be91846	0.0071134893
143	0xb9dae6fb	-0.00041752294
144	0xbd6bae9a	-0.05753956
145	0xbdbcccac	-0.092187256
146	0x3d9a7512	0.07541861
147	0x3dd44922	0.103655115
148	0x3d293287	0.041307952
149	0xbc3a686a	-0.011377433
150	0xbcac6a7c	-0.02104687
151	0xbcaa470d	-0.020785833
152	0xbd23fab9	-0.04003403
153	0x3e2dca74	0.16971761
154	0xbcf9d36a	-0.030496318
155	0xbcb06483	-0.021532303
156	0x3d3a4f00	0.045485497
157	0x3d7458ab	0.059654873
158	0xbdb93f4a	-0.090452746
159	0x3d29276c	0.04129736
160	0x3ae7ec2b	0.0017694285
161	0xbd9c8e25	-0.076442994
162	0x3d45dcdb	0.048306327
163	0x3d060733	0.03272171
164	0x3ad6b846	0.0016381822
165	0x3d1c5fcb	0.038177293
166	0xbd68c15d	-0.05682503
167	0x3d6f42ab	0.05841319
168	0xbdbc8f66	-0.092070386
169	0xbced57ec	-0.028972588
170	0x3d25b655	0.04045709
171	0x3d76ba8d	0.060236502
172	0x3bdc397b	0.0067207194
173	0x3d08a6a6	0.033362053
174	0xbc14c2df	-0.009079664
175	0xbdb30f17	-0.087431125
176	0xbc507aa0	-0.012724549
177	0x3e21e406	0.1580964
178	0x3d9534b3	0.07285442
179	0x3c90afa2	0.017661873
180	0x3e09e937	0.1346787
181	0x3dc74f58	0.097319305
182	0x3d6b5e19	0.057462785
183	0x3d3e607d	0.046478737
184	0x3daf1e8d	0.08550749
185	0x3d19102b	0.037368935
186	0xbc74b563	-0.014935824
187	0x3d0d89ae	0.03455513
188	0xbd79d9da	-0.060998775
189	0x3d590ea3	0.052992474
190	0x3c9b6d52	0.018973026
191	0xbcde5a1f	-0.027142582
192	0x3aba650e	0.001422079
193	0x3dabb3e9	0.083839245
194	0x3c6e83f3	0.014557826
195	0x3dbdf8f8	0.09276003
196	0xbdb172e0	-0.08664489
197	0xbd62ca2b	-0.055368584
198	0xbcc6fa8e	-0.024289396
199	0x3da4dcb8	0.08049911
200	0xbd22fc6d	-0.039791513
201	0x3d31c815	0.043403704
202	0x3dfbfdc0	0.12304258
203	0x3d773f39	0.06036303
204	0xbd6ce4f7	-0.057835545
205	0x3cbd5dc3	0.023115998
206	0xbd9dddd2	-0.077083245
207	0x3e2b416e	0.16724178
208	0x3d220a0c	0.039560363
209	0x3d1199c6	0.03554704
210	0xbd81c009	-0.06335456
211	0x3d3a494d	0.04548006
212	0x3d6612e4	0.05617036
213	0x3d9c4f93	0.07632365
214	0x3d2bfdf1	0.041990224
215	0xbd954756	-0.07288997
216	0xbd2fba7e	-0.042902462
217	0x3cc44871	0.023960324
218	0xbd4959f3	-0.049158048
219	0xbc4f042b	-0.012635271
220	0xbd3822c1	-0.04495502
221	0x3ce3aecd	0.027793312
222	0x3d4c327e	0.04985284
223	0xbd8caa25	-0.0686839
224	0xbcd5bdb2	-0.02609143
225	0x3cc35fd2	0.023849402
226	0x3d61bb28	0.055110127
227	0x3c0b1b70	0.008490428
228	0x3c95349c	0.018213563
229	0xbc4669e6	-0.012110209
230	0xbd00c192	-0.031434603
231	0x3d14d831	0.03633899
232	0x3cda1bff	0.026624678
233	0xbb4451d2	-0.0029955995
234	0xbd71ad3a	-0.059003092
235	0xbc0039c8	-0.007826276
236	0xbd8b1a43	-0.067921184
237	0xbd73f675	-0.05956121
238	0xbaf1e707	-0.0018455692
239	0x3c6bce00	0.014392376
240	0x3cf5c46c	0.030000888
241	0x3c130d08	0.008975275
242	0xbd8d71d2	-0.06906475
243	0x3e1ecefb	0.15508644
244	0xbd1bbdb7	-0.038022723
245	0xbc880aca	-0.016606707
246	0xbd2960b5	-0.041351993
247	0xbce90868	-0.028446391
248	0x3d771a72	0.060327955
249	0xbc8c5824	-0.017131872
250	0x3d927a32	0.07152213
251	0x3db3fb28	0.08788139
252	0xbcb51a5e	-0.0221073
253	0x3c11a915	0.00889041
254	0x3d10c538	0.035344332
255	0x3d69ea15	0.057108004

fc6.bias f4 [4]
0	0x3d37ca71	0.044870798
1	0x3d3228c8	0.043495923
2	0xbd8e39ce	-0.06944619
3	0x3cd35504	0.025797375
